…
com testValidationTransform Compose(
    Normalize(mean=[0.485, 0.456, 0.406], std=[0.229, 0.224, 0.225])
)
   category  Treinamento  Validação  Teste
0  Saudável          128         30     30
1    Doente          129         30     29


@@@@ Init pop
value =  4
value =  3
value =  4
value =  2
value =  5
value =  4
value =  4
value =  2
value =  2
value =  1
value =  3
value =  5
value =  2
value =  6
value =  1
value =  4
value =  1
value =  4
value =  1
value =  6


@@@@ Calculando fitness
verifyEntry ([4], [2], [1, 5], [1, 10], [1, 0.1857731567558439], [1, 11], [1, 12])
custom fc Sequential(
  (0): Linear(in_features=2048, out_features=32, bias=True)
  (1): ReLU()
  (2): Linear(in_features=32, out_features=1024, bias=True)
  (3): ReLU()
  (4): Dropout(p=0.1857731567558439, inplace=False)
  (5): Linear(in_features=1024, out_features=2048, bias=True)
  (6): ReLU()
  (7): Linear(in_features=2048, out_features=4096, bias=True)
  (8): ReLU()
  (9): Linear(in_features=4096, out_features=2, bias=True)
)

Best epoch: 1 with loss: 0.70 and acc: 43.33%
2952.50 total seconds elapsed. 147.63 seconds per epoch.

Historico treinamento e validação 
     train_acc  train_sensitividade  ...  validation_f1Score  valid_loss
0    0.517510             0.627907  ...            0.000000    0.701414
1    0.548638             0.472868  ...            0.325581    0.700017
…
    test_acc  test_sensitividade  test_especificidade  test_f1Score
0  0.779661            0.862069                  0.7      0.793651
TestLoader Losses 0.5654244594654795
@@@@ individuo =  6 [list([2]) list([6]) list([0, 9]) list([1, 0.22180133769376711])
 list([0, 4]) list([0, 0.5025231253900039]) list([0, 10])
 list([0, 0.30048912185595694]) list([0, 3]) list([1, 0.5778268747363061])
 list([1, 8]) list([0, 0.15174009389094614])] 
 fitness =  0.7796610169491526
verifyEntry ([2], [1], [1, 9], [1, 0.17065736910750998], [1, 11], [1, 0.3197351493711345], [1, 11], [1, 0.5177330618879615], [1, 9], [1, 3], [1, 0.27610931992185345])
custom fc Sequential(
  (0): Linear(in_features=2048, out_features=512, bias=True)
  (1): ReLU()
  (2): Dropout(p=0.17065736910750998, inplace=False)
  (3): Linear(in_features=512, out_features=2048, bias=True)
  (4): ReLU()
  (5): Dropout(p=0.3197351493711345, inplace=False)
  (6): Linear(in_features=2048, out_features=2048, bias=True)
  (7): ReLU()
  (8): Dropout(p=0.5177330618879615, inplace=False)
  (9): Linear(in_features=2048, out_features=512, bias=True)
  (10): ReLU()
  (11): Linear(in_features=512, out_features=8, bias=True)
  (12): ReLU()
  (13): Dropout(p=0.27610931992185345, inplace=False)
  (14): Linear(in_features=8, out_features=2, bias=True)
)

Best epoch: 9 with loss: 0.69 and acc: 50.00%
1483.06 total seconds elapsed. 148.31 seconds per epoch.

Historico treinamento e validação 
    train_acc  train_sensitividade  ...  validation_f1Score  valid_loss
0   0.498054             0.372093  ...            0.000000    0.700819
1   0.498054             0.000000  ...            0.000000    0.696601
2   0.498054             0.000000  ...            0.000000    0.693664
…
 list([0, 0.18389479625169752])] 0.847457627118644


@@@@ Selecao
indexParent 2
indexParent 2
indexParent 3
indexParent 1
indexParent 5
indexParent 2
indexParent 0
indexParent 3
indexParent 2
indexParent 5


@@@@ Crossover
not changing individuals
crossoverPoint 7
crossoverPoint 8
crossoverPoint 7
crossoverPoint 4


@@@@ Mutacao
Individuos para mutacao [4, 2]
@@@ mutated [1, 0.5465119394359016]
@@@ mutated [0, 0.09768904831161847]


@@@@ Calculando fitness
verifyEntry ([4], [2], [1, 5], [1, 10], [1, 0.1857731567558439], [1, 11], [1, 0.2574753409377971], [1, 4], [1, 4])
custom fc Sequential(
  (0): Linear(in_features=2048, out_features=32, bias=True)
  (1): ReLU()
  (2): Linear(in_features=32, out_features=1024, bias=True)
  (3): ReLU()
  (4): Dropout(p=0.1857731567558439, inplace=False)
  (5): Linear(in_features=1024, out_features=2048, bias=True)
  (6): ReLU()
  (7): Dropout(p=0.2574753409377971, inplace=False)
  (8): Linear(in_features=2048, out_features=16, bias=True)
  (9): ReLU()
  (10): Linear(in_features=16, out_features=16, bias=True)
  (11): ReLU()
  (12): Linear(in_features=16, out_features=2, bias=True)
)

Best epoch: 3 with loss: 0.69 and acc: 48.33%
3246.89 total seconds elapsed. 162.34 seconds per epoch.

Historico treinamento e validação 
     train_acc  train_sensitividade  ...  validation_f1Score  valid_loss
0    0.501946             1.000000  ...            0.666667    0.703528
1    0.501946             1.000000  ...            0.666667    0.699681
…
 list([0, 0.43531701384079674]) list([0, 3])
 list([0, 0.18389479625169752])] 0.847457627118644


@@@@ Selecao
indexParent 3
indexParent 4
indexParent 6
indexParent 0
indexParent 6
indexParent 3
indexParent 1
indexParent 7
indexParent 0
indexParent 5


@@@@ Crossover
crossoverPoint 4
crossoverPoint 10
crossoverPoint 2
not changing individuals
crossoverPoint 2


@@@@ Mutacao
Individuos para mutacao [6, 5]
@@@ mutated [0, 0.16625800380687808]
@@@ mutated [1, 0.3278614521834228]


@@@@ Calculando fitness
verifyEntry ([4], [2], [1, 3], [1, 5], [1, 0.1262070664185572], [1, 4], [1, 4], [1, 0.3278614521834228])
custom fc Sequential(
  (0): Linear(in_features=2048, out_features=8, bias=True)
  (1): ReLU()
  (2): Linear(in_features=8, out_features=32, bias=True)
  (3): ReLU()
  (4): Dropout(p=0.1262070664185572, inplace=False)
  (5): Linear(in_features=32, out_features=16, bias=True)
  (6): ReLU()
  (7): Linear(in_features=16, out_features=16, bias=True)
  (8): ReLU()
  (9): Dropout(p=0.3278614521834228, inplace=False)
  (10): Linear(in_features=16, out_features=2, bias=True)
)

Best epoch: 0 with loss: 0.69 and acc: 40.00%
3097.75 total seconds elapsed. 154.89 seconds per epoch.

Historico treinamento e validação 
     train_acc  train_sensitividade  ...  validation_f1Score  valid_loss
0    0.571984             0.627907  ...            0.651685    0.693444
1    0.521401             0.565891  ...            0.000000    0.694230
…
    test_acc  test_sensitividade  test_especificidade  test_f1Score
0  0.813559            0.896552             0.733333      0.825397
TestLoader Losses 0.48054381952447406
@@@@ individuo =  4 [list([4]) list([2]) list([0, 11]) list([1, 0.5950958103579727])
 list([0, 10]) list([0, 0.48319691862799363]) list([0, 8])
 list([1, 0.38275251356251844]) list([0, 10])
 list([1, 0.15153638994891563]) list([1, 7])
 list([1, 0.12676812206472354])] 
 fitness =  0.8135593220338984
verifyEntry ([4], [2], [1, 5], [1, 10], [1, 0.1857731567558439], [1, 11], [1, 12], [1, 7], [1, 0.12676812206472354])
custom fc Sequential(
  (0): Linear(in_features=2048, out_features=32, bias=True)
  (1): ReLU()
  (2): Linear(in_features=32, out_features=1024, bias=True)
  (3): ReLU()
  (4): Dropout(p=0.1857731567558439, inplace=False)
  (5): Linear(in_features=1024, out_features=2048, bias=True)
  (6): ReLU()
  (7): Linear(in_features=2048, out_features=4096, bias=True)
  (8): ReLU()
  (9): Linear(in_features=4096, out_features=128, bias=True)
  (10): ReLU()
  (11): Dropout(p=0.12676812206472354, inplace=False)
  (12): Linear(in_features=128, out_features=2, bias=True)
)

Best epoch: 1 with loss: 0.69 and acc: 43.33%
3175.74 total seconds elapsed. 158.79 seconds per epoch.

Historico treinamento e validação 
     train_acc  train_sensitividade  ...  validation_f1Score  valid_loss
0    0.533074             0.837209  ...            0.666667    0.693799
1    0.517510             0.759690  ...            0.666667    0.693728
…
    test_acc  test_sensitividade  test_especificidade  test_f1Score
0  0.644068             0.37931                  0.9      0.511628
TestLoader Losses 0.5726298043283365
@@@@ individuo =  1 [list([4]) list([2]) list([0, 11]) list([1, 0.5950958103579727])
 list([1, 10]) list([1, 0.1857731567558439]) list([1, 11])
 list([0, 0.39429564271574447]) list([1, 6])
 list([1, 0.43531701384079674]) list([0, 3])
 list([0, 0.18389479625169752])] 
 fitness =  0.6440677966101694
verifyEntry ([4], [2], [1, 5], [1, 10], [1, 0.1857731567558439], [1, 11], [1, 6], [1, 7], [1, 0.42282557555718114])
custom fc Sequential(
  (0): Linear(in_features=2048, out_features=32, bias=True)
  (1): ReLU()
  (2): Linear(in_features=32, out_features=1024, bias=True)
  (3): ReLU()
  (4): Dropout(p=0.1857731567558439, inplace=False)
  (5): Linear(in_features=1024, out_features=2048, bias=True)
  (6): ReLU()
  (7): Linear(in_features=2048, out_features=64, bias=True)
  (8): ReLU()
  (9): Linear(in_features=64, out_features=128, bias=True)
  (10): ReLU()
  (11): Dropout(p=0.42282557555718114, inplace=False)
  (12): Linear(in_features=128, out_features=2, bias=True)
)

Best epoch: 1 with loss: 0.69 and acc: 46.67%
2931.60 total seconds elapsed. 146.58 seconds per epoch.

Historico treinamento e validação 
     train_acc  train_sensitividade  ...  validation_f1Score  valid_loss
0    0.501946             1.000000  ...            0.666667    0.694779
1    0.494163             0.511628  ...            0.658824    0.694136
…
    test_acc  test_sensitividade  test_especificidade  test_f1Score
0  0.491525                 1.0                  0.0      0.659091
TestLoader Losses 0.6932798654346143
@@@@ individuo =  9 [list([3]) list([5]) list([1, 5]) list([0, 0.16625800380687808])
 list([1, 10]) list([1, 0.1857731567558439]) list([1, 11])
 list([0, 0.5446961484005021]) list([1, 6]) list([0, 0.11817163662579326])
 list([1, 7]) list([1, 0.42282557555718114])] 
 fitness =  0.4915254237288136
verifyEntry ([3], [5], [1, 7], [1, 11], [1, 6], [1, 0.43531701384079674], [1, 7], [1, 0.42282557555718114])
custom fc Sequential(
  (0): Linear(in_features=2048, out_features=128, bias=True)
  (1): ReLU()
  (2): Linear(in_features=128, out_features=2048, bias=True)
  (3): ReLU()
  (4): Linear(in_features=2048, out_features=64, bias=True)
  (5): ReLU()
  (6): Dropout(p=0.43531701384079674, inplace=False)
  (7): Linear(in_features=64, out_features=128, bias=True)
  (8): ReLU()
  (9): Dropout(p=0.42282557555718114, inplace=False)
  (10): Linear(in_features=128, out_features=2, bias=True)
)

Best epoch: 9 with loss: 0.69 and acc: 50.00%
4883.69 total seconds elapsed. 97.67 seconds per epoch.

Historico treinamento e validação 
     train_acc  train_sensitividade  ...  validation_f1Score  valid_loss
0    0.517510             0.271318  ...            0.000000    0.693964
1    0.490272             0.100775  ...            0.000000    0.693556
…
    test_acc  test_sensitividade  test_especificidade  test_f1Score
0  0.491525                 1.0                  0.0      0.659091
TestLoader Losses 0.6932700559244318
@@@@ individuo =  6 [list([3]) list([2]) list([1, 5]) list([0, 0.16625800380687808])
 list([1, 10]) list([1, 0.1857731567558439]) list([1, 11])
 list([1, 0.27251493520639586]) list([1, 6])
 list([1, 0.43531701384079674]) list([1, 7])
 list([1, 0.42282557555718114])] 
 fitness =  0.4915254237288136
verifyEntry ([4], [2], [1, 5], [1, 10], [1, 0.1857731567558439], [1, 11], [1, 0.27251493520639586], [1, 6], [1, 0.43531701384079674])
custom fc Sequential(
  (0): Linear(in_features=2048, out_features=32, bias=True)
  (1): ReLU()
  (2): Linear(in_features=32, out_features=1024, bias=True)
  (3): ReLU()
  (4): Dropout(p=0.1857731567558439, inplace=False)
  (5): Linear(in_features=1024, out_features=2048, bias=True)
  (6): ReLU()
  (7): Dropout(p=0.27251493520639586, inplace=False)
  (8): Linear(in_features=2048, out_features=64, bias=True)
  (9): ReLU()
  (10): Dropout(p=0.43531701384079674, inplace=False)
  (11): Linear(in_features=64, out_features=2, bias=True)
)

Best epoch: 0 with loss: 0.69 and acc: 43.33%
3429.80 total seconds elapsed. 171.49 seconds per epoch.

Historico treinamento e validação 
     train_acc  train_sensitividade  ...  validation_f1Score  valid_loss
0    0.501946             1.000000  ...            0.666667    0.694033
1    0.556420             0.294574  ...            0.589744    0.694141
…
 list([0, 0.18389479625169752])] 
 fitness =  0.711864406779661
verifyEntry ([3], [5], [1, 7], [1, 7], [1, 0.42282557555718114])

achei cache 0.7796610169491526  individuo =  9 [list([3]) list([5]) list([1, 7]) list([0, 0.09768904831161847])
 list([0, 9]) list([0, 0.5425670915470017]) list([0, 11])
 list([1, 0.38275251356251844]) list([0, 10])
 list([0, 0.09643501348207106]) list([1, 7])
 list([1, 0.42282557555718114])] 
 fitness =  0.7796610169491526
result (0, 0.7796610169491526)
verifyEntry ([3], [5], [1, 11], [1, 0.5950958103579727], [1, 10], [1, 7], [1, 0.42282557555718114])
custom fc Sequential(
  (0): Linear(in_features=2048, out_features=2048, bias=True)
  (1): ReLU()
  (2): Dropout(p=0.5950958103579727, inplace=False)
  (3): Linear(in_features=2048, out_features=1024, bias=True)
  (4): ReLU()
  (5): Linear(in_features=1024, out_features=128, bias=True)
  (6): ReLU()
  (7): Dropout(p=0.42282557555718114, inplace=False)
  (8): Linear(in_features=128, out_features=2, bias=True)
)
verifyEntry ([3], [5], [1, 11], [1, 0.5950958103579727], [1, 10], [1, 6], [1, 0.43531701384079674], [1, 7], [1, 0.42282557555718114])
custom fc Sequential(
  (0): Linear(in_features=2048, out_features=2048, bias=True)
  (1): ReLU()
  (2): Dropout(p=0.5950958103579727, inplace=False)
  (3): Linear(in_features=2048, out_features=1024, bias=True)
  (4): ReLU()
  (5): Linear(in_features=1024, out_features=64, bias=True)
  (6): ReLU()
  (7): Dropout(p=0.43531701384079674, inplace=False)
  (8): Linear(in_features=64, out_features=128, bias=True)
  (9): ReLU()
  (10): Dropout(p=0.42282557555718114, inplace=False)
  (11): Linear(in_features=128, out_features=2, bias=True)
)
